models/ranker.pt (torch, 207614 bytes, 5 tensors)

fc1.weight f4 [64, 768]
00000000: 7a81 243d 9497 d03b d6f5 d83c d600 833c
00000010: 0198 acba cea4 f3bc e11e c23b 89e6 02bd
00000020: 484f ccbc 4841 a5bc d655 17bd 442e d83c
00000030: 35b6 ecbc 780f a0bc 534a d93c d1fe 49bc
00000040: d741 19bc 6465 a23c 5cf8 cdbc 91af 78bc
00000050: e85e 013d 38d0 1b3d 3e88 15bd ec60 453c
00000060: c530 013c 832b 133d 29d4 d1bc dcd8 9cbc
00000070: b291 e73c 2bae d23c 7bff fa3c 7534 023d
00000080: e33a febc e8a6 1139 ccb4 173d 18c9 8dbc
00000090: ba59 b23c a5cc c9bc 8b39 3a3b c88a 69bc
000000a0: 7dc6 64bc 24e1 f03c cdae 0cbd eb79 18bd
000000b0: ca65 9a3c 9c7f 13bd ff0d 853c c60e 193d
000000c0: 42ce 64bb 7fe2 91bc 3655 813c 5b77 a0bb
000000d0: 1764 a13c 6ad6 0c3d fb80 d6bc dd61 ccbc
000000e0: b9ce a43c 3a1a ea3b c51f f0bc 18e9 e1bc
000000f0: 39a0 2bbc 10a7 893c 7e1f aabb 77f2 f13b
00000100: 3459 503b 572e b73b 2117 173c e8c1 24bd
00000110: f5ad a9bb f0ac a8bc fb84 cdbc fc51 9d3b
00000120: ffc9 9bbc 56a0 a1bc 4965 11bb 6abc 923a
00000130: e307 a5bc 2757 ac3c 526b df3c 935f 983b
00000140: a31f cdbc d172 97bc 9701 92bc 4c21 c73c
00000150: 6ffe 24bc 8222 9ebb cc54 87bc 3737 8dbc
00000160: 88ae 79bc 690e 0c3b 4e56 db3c c04e 79bc
00000170: 1303 d83c ee73 babc e8b2 f13b e3f9 fbbc
00000180: 8cd3 e73c 4784 263c 10ba 83bb e6cf afbc
00000190: 051e 12bc 120b efbb 74b6 433c e98b 123c
000001a0: cf05 9b3c 4168 6e3c 37eb 67bc baf8 ad3c
000001b0: be37 743a 473a fdbb be00 c83c 08cc 58bc
000001c0: 0fa8 7bba a53b f9bb b92a 9e3c 10c2 ca3c
000001d0: cd56 d63c 3291 9bba 06b2 03bc 77fc 76bb
000001e0: c320 86bc cbfd 84bb 8721 f1bb e1ca 0fbc
000001f0: 71ff d5bc 63bd a1bc 8827 babc 95a5 a5bc
00000200: e669 fabc 84c0 01bd fe14 efbb 266f 05bd
00000210: 2381 2b3c 1c80 f83c 746d 8cbc 1998 6c3c
00000220: 4148 043d 2c02 2abb d2cb 83bc c6da b23c
00000230: b86a edbc be71 053d 33fd aabc e3da d5bc
00000240: eac6 a93b cb29 833c d23d d2bc 6b3e 8f3c
00000250: bb93 0d3c 7daa 11bd 4563 9c3c 311d fc3c
00000260: de9c 2d3b 74bc 203b 8234 9fbb 94fc d53c
00000270: 75b2 1e3d 15c4 39bc dcd8 903c 2ce4 8b3c
00000280: 646c 53bc f48a d0bb 2e97 db3b 7589 bbbc
00000290: 3cf5 193c b303 87bc 9aaa ccbc 2c7e 1cbd
000002a0: 5c66 fa3c 8312 eebc 9f7e f8bc c868 063d
000002b0: 69ab 3c3c 4556 c0bc 8ccd fb3c bb1e 1b3c
000002c0: 1fcd 8e3c 036f a13c aed5 fcbc e25f d2bc
000002d0: 65c8 abbc bc94 2f3c 38bc 0abd 0e80 0bbc
000002e0: e51a 613c 33e1 f9bc d8f9 27bd 0290 c8bb
000002f0: 3bc0 873c 7aeb fd3a 3b27 34bc 4af7 11bd
00000300: 57ed b7bc c928 eabc 1d6f c6bc 7253 92bc
00000310: 76af 103c 235c e1bc e7bd e33b f510 c03b
00000320: 4ad5 3b3c 9019 833c f0be 8a3c e628 e7bc
00000330: ab1b 4f3a 6337 98ba 8e09 78bc 1bf9 0abd
00000340: 22ed fcbc 80d4 c4bc 1994 503c fb0b dc3c
00000350: 4cbc 03bd a932 00bd 2983 96bc 9510 9e3b
00000360: c2d0 063d ce5e b53c af9d cfbc 971d 183d
00000370: 196b cbbc bae9 1c3d 2335 79bc 8009 febc
00000380: 9120 3b3b 1c26 05bc c98f 72bb 6ebf 63bc
00000390: cd62 243c fdad e83c e17a 793c ef11 f0bc
000003a0: 2d9d adbc 79d4 34bc ffab c5bc 411e fa3c
000003b0: 7012 1abd 9732 61bc b9c7 9fbc 08e8 a43b
000003c0: f3b0 be3c 7090 d53b 09f9 ee3c 4675 1cbc
000003d0: e133 e2bc 68ec 8339 05f5 2d3b faf6 c43c
000003e0: fb82 4bbc 2bcc f8bb 42fa 203c d987 6d3c
000003f0: 2d71 ffbc d693 173b b05e 88bc 77e3 0f3b
0.04016254 0.006365726 0.026484411 0.01599161 -0.0013167859 -0.029741671 0.005924091 -0.031958137
-0.024940148 -0.02017273 -0.036947094 0.026389249 -0.028895477 -0.019538626 0.026524698 -0.012328819
-0.009354076 0.019823737 -0.025142841 -0.015178577 0.03158465 0.03804037 -0.036506884 0.012047034
0.007885163 0.035930168 -0.025613861 -0.019146375 0.028267715 0.025717815 0.0306394 0.03178831
-0.031033939 0.00013890455 0.037037656 -0.017307803 0.0217713 -0.024633715 0.0028415646 -0.014254279
-0.013963339 0.02940423 -0.03434639 -0.037225645 0.018847365 -0.03601037 0.016242025 0.037367605
-0.0034912978 -0.017808197 0.015787702 -0.004897041 0.019701047 0.03438417 -0.02618455 -0.024949009
0.020118104 0.0071442397 -0.029312024 -0.027576968 -0.010475212 0.016803294 -0.0051917424 0.0073836404
0.003179145 0.005590241 0.009221823 -0.040223986 -0.005178208 -0.020590276 -0.025087824 0.004801033
-0.019017218 -0.019729774 -0.0022185615 0.0011195068 -0.020145362 0.021037651 0.027272854 0.004650065
-0.0250395 -0.018487366 -0.017823024 0.02430787 -0.010070427 -0.004825891 -0.016519926 -0.017238243
-0.015239365 0.0021370894 0.026774552 -0.015216529 0.026368653 -0.022760358 0.0073760636 -0.030758804
0.028299116 0.010163373 -0.004019983 -0.021461438 -0.00891829 -0.007295021 0.011945356 0.00894449
0.018923668 0.014551223 -0.014155201 0.021236766 0.00093161676 -0.0077278945 0.024414416 -0.013232239
-0.0009599933 -0.007605987 0.019307481 0.02475074 0.026164437 -0.0011868833 -0.00803805 -0.0037687102
-0.016373044 -0.004058575 -0.007358733 -0.008776397 -0.02612278 -0.019743627 -0.022723928 -0.020220557
-0.030568074 -0.031677738 -0.0072962036 -0.032576703 0.0104678 0.030334525 -0.017142035 0.01444056
0.03229547 -0.0025941236 -0.0160884 0.021832835 -0.028981552 0.032579176 -0.020872688 -0.02610535
0.005181183 0.01601114 -0.025664244 0.017485818 0.008641179 -0.03556298 0.019090304 0.030775638
0.0026491205 0.002452639 -0.0048585543 0.026121415 0.03874441 -0.0113382535 0.017681532 0.017076574
-0.01290426 -0.0063642208 0.0067013716 -0.022892693 0.009396847 -0.016481256 -0.024983693 -0.038206264
0.030566387 -0.029061561 -0.030333815 0.03281477 0.011515477 -0.023478637 0.03073766 0.009467776
0.017431794 0.019706255 -0.03086361 -0.025680486 -0.020969579 0.010716613 -0.033870906 -0.008514417
0.013739322 -0.030502891 -0.041009754 -0.0061206827 0.016571155 0.0019372546 -0.010995681 -0.035636224
-0.02245204 -0.028583901 -0.024222905 -0.017862055 0.008830896 -0.027509755 0.0069501284 0.0058613964
0.011464426 0.0160034 0.01693675 -0.028217744 0.0007900546 -0.0011613186 -0.015138997 -0.03392897
-0.030874792 -0.02402711 0.012730622 0.026861181 -0.032161996 -0.031298313 -0.018373089 0.004823754
0.03291393 0.022139933 -0.025343744 0.037137594 -0.024831342 0.038308837 -0.015210423 -0.03101039
0.0028553347 -0.008126762 -0.0037011972 -0.013900621 0.010033322 0.028403277 0.0152270505 -0.029305426
-0.021193111 -0.011036986 -0.024129866 0.030532004 -0.03761524 -0.013744972 -0.019504415 0.005032543
0.023277735 0.0065174624 0.029171484 -0.009549445 -0.027612628 0.00025162403 0.0026543748 0.024043549
-0.012421365 -0.007592698 0.009825291 0.014497721 -0.031181896 0.0023128889 -0.016646713 0.0021955648

fc1.bias f4 [64]
00000000: fcd2 b33b d260 81bb 631b bc3c 3b57 123d
00000010: 7199 1e3c d15e cebc b571 f93c 04d7 a03c
00000020: b671 4f3a 6ec0 093b 96d6 1b3b 9061 78bc
00000030: 4952 073d 4d87 9b3c d037 31ba 01a4 e7bc
00000040: 7db7 04bd 9b97 fbbb ed7b e7bc 0b93 8dbc
00000050: 176b 6fbc 492d 0c3d f61e 89bc 3d22 ee3c
00000060: 309a 073d 3af5 ab3c 49c8 89bc 29a2 dfbc
00000070: c01b a93c 2ae8 f43b f1c8 013d 1cb6 fe3b
00000080: 4eeb 0cbd bba3 0a3d ead6 453c 83a8 eebb
00000090: 3c2e f73b 7611 403c 568c 48bc 94cc 01bc
000000a0: f019 223d e109 df3c 2903 90bb 6109 333c
000000b0: 5daa ec3b 947c 88bc f90a 3bbb a432 91ba
000000c0: 14d9 2bbc f568 013c e761 1a3d 9dd1 5cbc
000000d0: ca80 2f3c 43ab 8fbc faa0 cd3c d70d b33c
000000e0: e9fc b5bc f105 eebc 8925 223c 0e20 e23b
000000f0: d5b4 f8bc a3c4 70bb b2b4 15bd a825 583a
0.005487798 -0.0039483095 0.022962278 0.03572772 0.009680138 -0.025191696 0.030449728 0.019633777
0.00079133676 0.0021019238 0.0023779026 -0.015159979 0.033037458 0.018985415 -0.0006760331 -0.028276445
-0.03240155 -0.007677985 -0.028257335 -0.01728203 -0.014612935 0.034222875 -0.016738396 0.02906906
0.03310603 0.020990957 -0.016819136 -0.027299004 0.020643115 0.007473965 0.031685773 0.007773174
-0.03440409 0.03384755 0.012075165 -0.0072832718 0.0075433534 0.011722913 -0.01224049 -0.00792231
0.039575517 0.02722639 -0.004394908 0.010927529 0.0072224573 -0.016660966 -0.0028540476 -0.0011077714
-0.010488767 0.007898559 0.037691023 -0.01347771 0.010711858 -0.017537719 0.025101174 0.021857185
-0.022215324 -0.029055567 0.009896644 0.006900794 -0.030359665 -0.0036738298 -0.036549278 0.00082453573

fc2.weight f4 [32, 64]
00000000: c5c4 a43d 1727 3d3d b0d2 f53c 2018 bc3d
00000010: 44dc 8abd 6a02 e9bd f171 bebd c998 ab3d
00000020: 69b9 923d 0f57 4f3b e867 433d a6dc 333d
00000030: 7e17 133d 31d4 c63d 7dff a03d ebc4 62bd
00000040: ebee 563d 3909 a73d 7e12 963d 27b2 10bd
00000050: 1f8f b53d 71d6 3b3b 750c a53d 5b49 33bc
00000060: 7017 603d 0efb 5d3d b632 9ebc d292 f63d
00000070: 4eba 54bd 7ffd 34bd fd47 05bc 5c1b cf3d
00000080: d7a9 ea3d 3975 a6bd af7e cdbd 2fc1 f0bd
00000090: 95ea 883d 0993 6f3d 433b 54bc e53f abbd
000000a0: 2d4d a33d 1443 2cbc 519c e2bc 4180 38bc
000000b0: 1376 a8bc 385f bdbc ac42 693d 4307 b6bd
000000c0: 8e82 f4bc fa77 e5bd 6f42 b6bd a645 b1bc
000000d0: ba2a 31bd e4b7 813d ed12 41bd 5f2b d9bd
000000e0: 7b30 143d 0cbc f2bc f309 d9bd 7357 85bd
000000f0: 5a4a d63d 1056 2c3d 351c 64bc 01cf 023e
00000100: d4cc 973d ee20 593d 8354 cf3d aa95 d43c
00000110: 5b85 34bd 067a 9c3d e451 b53d ed60 b7bd
00000120: 7d90 03be 5b9e 9e3d 2efd 723d 9c4e c03c
00000130: c710 f4bd a5b6 3d3d 407a 913d a8e6 843c
00000140: 6e02 b43d 6ff0 3f3d 14d0 d23d 00d4 97bc
00000150: 298a f43d 09a0 33bd 2b4b 13bd 9e65 cfbd
00000160: c15c f0bd 9597 953d 848c 163d bcb5 8ebd
00000170: b9eb c13c 7875 5fbc e591 fdbc b977 1b3a
00000180: be9d f53d 27f4 c53d 9fe0 4b3d 54f8 393d
00000190: 76b2 05bd a628 3fbd ebe6 de3c f26b 153c
000001a0: 5fe8 983c 1010 bf3c 83b8 883d be7b d73d
000001b0: a13c 15bd 654d 2d3c 33d6 dcbd f1be 153d
000001c0: 8fc0 82bd 937b 90bd ebf2 073d 8a5d 1c3c
000001d0: 4005 cc3d 9d62 cebd 7039 573c 85e3 c93d
000001e0: 0c47 fabc 1c2f 41bd cff2 dc3d b4d3 513d
000001f0: 7e80 833c d046 90bd e6c8 683c 694a 943d
00000200: 1229 b13c a43e 16bd 960e edbd 2e03 293d
00000210: 06c3 803c d104 d9bc d894 ebbc b188 bebc
00000220: 01ff 653d d299 18bd 6dc9 1eba 97c7 5fbd
00000230: b278 ea3d 6e85 feba cdbd 923a d993 58bc
00000240: 9ffa 7cbc 4c5a 083b e1b3 d6bc 36ae 893d
00000250: 7a68 f1bd a15f 25bd 1e9f b7bd f00d fabc
00000260: 1844 9f3d a84e f23c 5eae c03d 7aa6 eebd
00000270: 41a5 e5bd 0ba5 e6bc 2062 0b3d 4bfb 783d
00000280: cc5f fb3c 92fd 593d d0bd a8bc d195 edbd
00000290: fa4a 9fba dd25 27bd 49c1 e9bd ef37 e13d
000002a0: 705c d3bd 62f0 e3bd 94fc 64bd 4d08 ca3d
000002b0: 7e6c eb3d d882 8c3d 25cb 9abd eca7 ed3d
000002c0: a79e 8f3d 0327 e13d 221d d9bb 284a f33d
000002d0: b1cc 99bd ff70 513c e780 5ebc 56ef b33d
000002e0: d71d 03be 17c0 4abd beb8 9ebc c03f aabd
000002f0: a85d 30bc db32 d23d 19c2 803d e0be d53d
00000300: c2ee 99bd f814 b53d 2e01 ab3d c051 86bd
00000310: dcaf 483d f860 c13d aadf a9bd 56e4 debd
00000320: 50e0 57bd 7026 dcbd d826 95bd 7273 d9bd
00000330: 3e44 b03d 5ee1 9fbd 365d d4bd 18d5 e93d
00000340: 5e0d e53d 1874 5d3d dce8 b0bd 6a06 e0bd
00000350: e867 81bd 8a29 813d 0428 e3bd d068 183d
00000360: f0b1 a93d b0f3 f4bd 7e93 c93d e483 18bd
00000370: 7607 bcbd 54c3 c63d 90d8 63bd 50cc f93c
00000380: 0864 b8bc fc70 273d da7b 853d 741b b53d
00000390: bc57 17bd d0cc 283d e004 76bc a2c5 9fbd
000003a0: 7ca8 38bd e04a 89bc 66ff d43d c842 62bd
000003b0: 8896 bb3c 0852 42bd a097 32bc 14bf 91bd
000003c0: e004 fdbd 48d2 97bc e4b6 d8bd 2095 ca3c
000003d0: 04ee bf3d d8f0 abbc 7c49 b13d 9427 94bd
000003e0: a08f 833c d804 a8bd fceb c5bd c68c e8bd
000003f0: d671 b0bd 8c08 e63d c216 cfbd b4f4 4dbd
0.08045343 0.046179857 0.03000769 0.09184289 -0.067802936 -0.113774136 -0.09299076 0.08378751
0.071642704 0.0031637584 0.047706515 0.0439116 0.035911076 0.09708441 0.078612305 -0.055363577
0.052473944 0.08156056 0.07327746 -0.03532615 0.08865189 0.0028661753 0.080590166 -0.010942782
0.05470985 0.054194503 -0.01931129 0.120397225 -0.051935486 -0.044187065 -0.008134839 0.1011264
0.11458176 -0.08127827 -0.100339286 -0.11755597 0.06685368 0.058489833 -0.012953582 -0.08361796
0.079737045 -0.01051404 -0.027662428 -0.011261047 -0.020564115 -0.023116693 0.05694835 -0.08888104
-0.02984741 -0.11204524 -0.0889939 -0.021639656 -0.043253638 0.063339025 -0.04713719 -0.106039755
0.036179047 -0.029630683 -0.10597601 -0.0651082 0.104634 0.042074263 -0.013922741 0.12774278
0.07412115 0.05300992 0.10123541 0.025950272 -0.04407249 0.076404616 0.0885351 -0.08954034
-0.12848087 0.07745048 0.059323482 0.023474984 -0.119172625 0.04631676 0.071033955 0.016223267
0.08789526 0.046860155 0.10293594 -0.018533707 0.119404145 -0.043853793 -0.035960358 -0.10126804
-0.117364414 0.073043026 0.0367551 -0.06968257 0.023671972 -0.013638847 -0.030953357 0.0005930621
0.119929776 0.09665709 0.049774762 0.04540284 -0.032640897 -0.046669625 0.02720972 0.009119974
0.01866549 0.023323089 0.06675818 0.10521649 -0.036434773 0.010577534 -0.10783043 0.03655905
-0.06384384 -0.0705482 0.03319065 0.009543786 0.09961939 -0.10077403 0.013136253 0.09857849
-0.030551456 -0.047164068 0.107884996 0.051227286 0.01605248 -0.070447564 0.014208054 0.07240755
0.02162603 -0.036680833 -0.11575048 0.041262798 0.015717994 -0.026491554 -0.028757498 -0.023258539
0.056151394 -0.03725607 -0.00060572365 -0.054633703 0.11448802 -0.0019418427 0.0011195481 -0.013218843
-0.015440612 0.0020805774 -0.02620882 0.06722681 -0.117875054 -0.040374402 -0.08965896 -0.030524224
0.0777666 0.029578522 0.09408258 -0.11652847 -0.1121316 -0.02815487 0.034029126 0.060786527
0.030685328 0.05322034 -0.020598322 -0.11600841 -0.0012153082 -0.040807594 -0.11413819 0.109969966
-0.103203654 -0.11129834 -0.05590494 0.098648645 0.114953026 0.06860894 -0.07558278 0.11604294
0.070126824 0.10993769 -0.0066257874 0.118793786 -0.07509745 0.012783288 -0.013580537 0.08785884
-0.12804352 -0.049499597 -0.019375201 -0.083129406 -0.010764517 0.10263606 0.06287021 0.10436797
-0.075162426 0.0884189 0.083498344 -0.06558561 0.048995838 0.094423234 -0.08294614 -0.108833954
-0.052704155 -0.10749519 -0.072827995 -0.106177226 0.08606766 -0.07806657 -0.10369341 0.114175975
0.1118419 0.054065794 -0.086381644 -0.109387234 -0.06318647 0.06306751 -0.11091617 0.037209332
0.08285892 -0.11960542 0.09842585 -0.037235156 -0.091811106 0.09705225 -0.055626452 0.030492932
-0.022508636 0.040879235 0.065177634 0.08843127 -0.036948904 0.04121095 -0.015015811 -0.07801367
-0.045082554 -0.016759336 0.10400276 -0.05523947 0.022898927 -0.047441512 -0.010900408 -0.071165234
-0.123544455 -0.018532887 -0.105817586 0.024729311 0.0937157 -0.020988867 0.08656594 -0.072341114
0.016059697 -0.08204049 -0.09664151 -0.113549754 -0.086154625 0.11232099 -0.101117626 -0.050282195

fc2.bias f4 [32]
00000000: c135 8e3d d4f9 5ebd bf8e 663d cacf 91bd
00000010: ba03 99bd 6b34 65bd 513c a93d 4dac 833d
00000020: 6d00 343d fb2e 04bd bf00 173d a5ff 983d
00000030: f0c4 96bd 8ec0 bdbc c1ed b6bd 5526 373a
00000040: f4a0 cdbd 5c0d a9bc a8cc a0bd a129 e33c
00000050: d4a3 a73b d62b f1bd f9f8 afbd 65a7 223d
00000060: fb97 e4bd 6e97 71bd 26e1 c83d 2252 813c
00000070: 04c0 c23d 8766 e13c 9bf0 63bc 1481 debc
0.069438465 -0.054437473 0.056288477 -0.07119711 -0.07471414 -0.055958193 0.082634576 0.06429348
0.04394572 -0.032271367 0.036865946 0.07470635 -0.073617816 -0.023163106 -0.08932067 0.0006986608
-0.10040465 -0.020636253 -0.07851535 0.027729811 0.0051159654 -0.11775939 -0.0859241 0.03971042
-0.111618005 -0.058982305 0.09808569 0.015786234 0.0950928 0.02751471 -0.013912345 -0.027161159

fc3.weight f4 [1, 32]
00000000: d592 203c cc06 0b3e a609 00be db6b ddbd
00000010: 9068 bbbd 88f4 7c3d e1c1 30be 1003 30bd
00000020: 98f9 073c 73a9 9bbd de43 2f3d 3273 21be
00000030: 1069 18bd ed7c 353e 34a0 17be 4b78 8dbd
00000040: 1170 023e f4be f339 8717 0d3e 05ca e9bd
00000050: 0ebf 0f3b 4021 e63c cd16 413d 6140 2c3d
00000060: aeb8 dd3d 1ef9 b3bb 19c1 30be 015e cfbd
00000070: 88b2 0f3e 5376 d93d ee0d 183e ed12 bebd
0.0098006325 0.13576812 -0.1250368 -0.108115874 -0.09150803 0.06175664 -0.17261459 -0.04297167
0.008299254 -0.07600679 0.042789333 -0.157666 -0.03720957 0.17723437 -0.14807206 -0.0690771
0.12738062 0.00046490843 0.13778506 -0.11415485 0.0021933946 0.028092027 0.047140885 0.042053584
0.108262405 -0.0054923436 -0.17261161 -0.10125352 0.14032948 0.10618272 0.14849064 -0.092809536
